lightning/lightning_logs/version_0/checkpoints/epoch=2-step=2346.ckpt (torch, 484082 bytes, 12 tensors)

fc1.weight f4 [50, 784]
000000 c0 3f 2a 3c 52 0c 5a bc b4 61 30 3c 90 22 43 3b
       0.010391176 -0.013308601 0.010765482 0.002977524
000010 88 7e cf 3c f0 88 e9 3b 38 03 c2 3c fa 08 af bc
       0.02532889 0.00712692 0.023683175 -0.021366585
000020 a8 80 d2 3b 23 ab d2 bc 78 83 bc bc 4c 77 b8 bc
       0.0064240284 -0.02571637 -0.023011908 -0.022517823
000030 ec 28 a7 3d ef e3 fd 3c 41 43 10 3d c3 0d d1 bc
       0.08162102 0.030992476 0.03522039 -0.025519257
000040 30 72 42 bb 88 07 82 3b 00 58 c5 39 fa b9 b2 3c
       -0.0029670112 0.003968183 0.00037640333 0.021817196
000050 e0 a3 a5 bc 20 ba c6 3a 70 d3 0c bb b8 e9 09 bc
       -0.020219743 0.0015161671 -0.0021488331 -0.008417539
000060 66 c0 c5 3c 72 a0 e5 3c 93 01 c3 bc 28 d4 ca 3b
       0.024139594 0.028030608 -0.023804462 0.006189842
000070 80 33 91 b9 80 d9 68 3b b0 ad e9 3b 64 ec c0 bb
       -0.00027694926 0.003553003 0.007131301 -0.005887555
000080 12 81 92 3b 45 c3 ba 3c 69 6c c3 3d 83 b0 09 3e
       0.004470953 0.02279819 0.09542162 0.1344624
000090 45 2f a0 3d 2f 1a f5 3d ad 72 e3 3d e6 69 20 3e
       0.07821516 0.11967885 0.11105857 0.15665397
0000a0 9b 09 34 3e 4f 72 f2 3d ee 8c b1 bb ec 29 4a 3d
       0.17581789 0.11838209 -0.0054184115 0.049356386
0000b0 68 6c 14 3d 0e 74 93 3d 2d 48 cb 3d 35 58 a7 3d
       0.036236197 0.0719987 0.09925876 0.08171121
0000c0 f8 8f 09 3e 68 31 b1 3d a6 b0 4f 3d 04 7f a9 3d
       0.13433826 0.086520016 0.050705574 0.082761794
0000d0 4a c9 c6 bc a5 57 c4 bc 72 a9 38 bc 45 5f 08 bd
       -0.024265904 -0.023967573 -0.011270868 -0.03329398
0000e0 4d 36 0c bd 03 c5 d1 bc 01 cf 4b 3d 21 86 a4 3d
       -0.034231473 -0.025606638 0.04975796 0.080333956
0000f0 0e 45 84 3d a0 d5 9b 3d 0b 70 ef 3d 4c a8 5d 3e
       0.06458484 0.07609105 0.116912924 0.21646231
000100 5b fd b7 3d b3 72 04 3d 4e 44 b7 3d 64 b3 b1 3d
       0.089838706 0.03233595 0.08948575 0.08676794
000110 96 27 96 3d ef a4 94 3d 14 1d 9a 3d 88 20 d3 3d
       0.07331769 0.07258021 0.075250775 0.10308939
000120 b3 61 9c 3d 33 46 84 3c 40 53 bf 3c 45 a3 d7 3d
       0.07635822 0.016146755 0.023355126 0.10529188
000130 65 8d cf 3d 25 4b ad 3d d5 3f 19 3e cc f6 9c 3d
       0.10134391 0.08461598 0.14965756 0.0766426
000140 05 8c 5d bd 78 df 54 bd d0 4d 32 bb 99 a2 0e 3d
       -0.05408861 -0.05197093 -0.0027207024 0.034823034
000150 9c 23 06 bd 00 2e a0 38 8b 4e dc 3b f1 e8 2d 3d
       -0.032748803 7.637963e-05 0.0067232302 0.04245848
000160 7d f2 e0 3d 68 56 62 3d 80 f7 21 3d 24 76 f5 3c
       0.10983751 0.055258185 0.039542675 0.02996356
000170 e1 f6 a7 3c d9 5b 04 bd 3b 87 86 bd 87 1c ef 3b
       0.020503463 -0.032314155 -0.06568762 0.007297102
000180 11 4f c4 3c 53 e6 36 3d 83 7c 42 3d bd 51 fd 3d
       0.023963483 0.044653248 0.047482025 0.12369106
000190 25 82 05 3d 09 db 5b 3d c0 73 e3 3d 77 a6 d5 3d
       0.03259482 0.053675685 0.11106062 0.10432141
0001a0 d0 d4 18 3e 39 cb 10 3e 51 78 01 3e 97 f9 6a 3e
       0.14924932 0.14140023 0.12643553 0.22946773
0001b0 f3 79 eb 3b f3 d9 36 bd a5 77 b8 3b d2 54 f7 3c
       0.0071861683 -0.044641446 0.005629497 0.030191813
0001c0 ee 19 ae bc 9f 14 08 bb 71 85 10 3c 98 70 a6 3d
       -0.021252599 -0.0020764244 0.008820877 0.08126944
0001d0 3d bd 02 3d 6d 5f 38 3c 62 9c 8a bd 3c 23 49 3d
       0.031918753 0.01125322 -0.06768109 0.049105868
0001e0 f0 fc 73 3d 1b 52 07 3d 2c ec 5e 3d 4b 37 43 3b
       0.059567392 0.033037286 0.05442445 0.0029787596
0001f0 0c ce 4e 3d 92 f4 6c 3d c5 97 1d 3d f8 0a 96 3d
       0.05048947 0.057850428 0.038474817 0.07326311
000200 a6 8a 68 3d 54 21 51 3d cf 7f b2 3d 3c 32 d1 3d
       0.05677285 0.051057175 0.08715784 0.102146596
000210 d8 3f 19 3e 46 b9 82 3e ff 7e 46 3e 56 7b 66 3e
       0.1496576 0.25531977 0.19384383 0.22507986
000220 48 c1 db 3c 59 e6 9c bd a5 0c 27 3d 52 f3 9c 3d
       0.026825562 -0.07661123 0.040783543 0.07663597
000230 fe d8 b4 bc 98 db 7c bc 7a 83 0a 3d 06 a7 09 3d
       -0.022076126 -0.015433215 0.033816792 0.03360655
000240 10 19 10 bd ff 8c 89 bd a8 ea a6 3c 0a be 60 3d
       -0.03518015 -0.06716346 0.020375565 0.054868735
000250 84 29 55 3c 8c ee 41 3d b1 5c 41 3c 93 67 70 bd
       0.013010386 0.047346637 0.0118018845 -0.058692526
000260 0e 83 a4 bc fa 92 43 3c 3c af 72 3c ff 87 af 3c
       -0.020082023 0.011936897 0.014812287 0.021427153
000270 ff 34 40 3d e0 a7 5f 3a c4 11 3d 3d db 68 d7 3c
       0.04692554 0.000853179 0.04615952 0.026295116
000280 73 96 e1 3d 4b 27 17 3e 0d 8a df 3d 72 9a 0a 3e
       0.11015024 0.14761083 0.10915003 0.13535479
000290 6c 1f f2 3d ab de 11 3d 25 f4 c8 3d 01 b5 f4 3c
       0.118223995 0.035612743 0.09812192 0.029871466
0002a0 80 dc b2 bc 5e 20 cd bc 9d c8 c5 3d bd f6 c1 bb
       -0.021833658 -0.025039848 0.096574046 -0.005919306
0002b0 92 21 15 bc b0 22 4a bc 97 80 1d 3d bf 3f 38 3d
       -0.009102242 -0.012337372 0.03845271 0.044982668
0002c0 ff cb 68 3d 22 53 e2 bc 9d 24 e5 bc 82 da 30 bd
       0.05683517 -0.027627531 -0.02797156 -0.043177135
0002d0 ae a5 2f bc 33 68 bc bd ca 40 15 bd 05 15 9f bd
       -0.010720653 -0.09199562 -0.03643874 -0.07767681
0002e0 d2 65 4b bd b0 73 d4 bc 63 e6 1d bd e1 8c 8b bd
       -0.04965765 -0.02593407 -0.038549792 -0.0681398
0002f0 13 0d 65 bd 9c 8c 56 3d 53 b9 4c 3d e6 ce 27 3e
       -0.05592067 0.05238019 0.049981426 0.16387519
000300 2f 5f 1c 3e f1 22 22 3e 8f be 20 3d 50 67 ac 3d
       0.15270685 0.15833642 0.03924423 0.08418143
000310 d4 85 9d 3c ab ac 5b 3d 6b 2a 6f 3d 4d 17 08 3d
       0.019228853 0.053631466 0.058390062 0.033225346
000320 90 e6 5d bc 74 c5 7d 3c ef 02 06 3c 5a 4a 59 3d
       -0.01354374 0.015488971 0.00817941 0.053049423
000330 08 5d 97 3c 31 a1 99 3c 83 93 63 3b 51 8e 07 bc
       0.018476978 0.01875362 0.0034725375 -0.008273677
000340 65 b4 1c bd 89 a3 ea bd 5c c0 1a be 76 d0 9f bd
       -0.038257975 -0.11456973 -0.15112442 -0.07803433
000350 29 af a3 bd 7e 7d aa bd a8 94 9b bd eb 5e 9f bd
       -0.079923935 -0.08324717 -0.07596713 -0.07781776
000360 2d 0a 47 bd bd 4e e8 bc bb 6f b8 3c a4 d3 a6 3d
       -0.04859369 -0.028357858 0.022514215 0.08145836
000370 54 60 5e 3e 12 e4 da 3d b2 e0 35 bc 3f d3 ce 3d
       0.21716434 0.10688032 -0.011100935 0.10098886
000380 a8 8c e4 3c c2 d7 4e 3d 68 e9 57 3d 28 16 31 3d
       0.027899101 0.05049873 0.052712828 0.04323402
000390 68 6e 91 3d a0 68 3c 3d 76 aa 39 3d 7d c2 65 3d
       0.071011364 0.045998216 0.04532858 0.05609368
0003a0 5b 08 82 3d 1e 2b 1f 3d d6 c8 c3 bb 49 90 ac bc
       0.0634925 0.03885948 -0.0059748692 -0.021064894
0003b0 64 fe d7 bb 6e f9 b7 bc 8b 41 35 bd e9 e4 8c bd
       -0.006591605 -0.022457805 -0.04425196 -0.06879599
0003c0 ce 6b 3d bd 6e c1 04 bd b6 82 87 bd ab e8 ce bd
       -0.04624539 -0.03241103 -0.06616728 -0.10102972
0003d0 46 d6 9e bd 62 f0 4b bd 1b af 92 bc 6b 6b 22 3d
       -0.07755713 -0.049789794 -0.017905762 0.039653223
0003e0 77 09 4f 3e a9 6b 00 3e fb 6e 6f 3d cd b3 d2 3d
       0.20218454 0.12541069 0.05845545 0.102882005
0003f0 38 bb 20 3d d7 27 d6 3c 01 5e d8 3d 8d 39 8e 3d
       0.039241046 0.026142044 0.10564805 0.06944571

fc1.bias f4 [50]
000000 52 c9 c6 3c 79 75 b1 3a 81 7c 28 3e 45 43 0b 3d
       0.024265919 0.0013539038 0.16453744 0.0339997
000010 3b d5 34 bc 5f e1 f8 bd 17 f5 18 bd 9e 46 9d 3b
       -0.011037166 -0.12152361 -0.03734311 0.004799678
000020 35 df 3d 3e c9 f9 e6 b8 13 d5 cb bc fd 3c 95 bc
       0.18542178 -0.00011013781 -0.024881875 -0.018217558
000030 0d 5a e6 3d 3e 2a 9c 3c d1 fd 06 3e 0b ff d9 3d
       0.112476446 0.019063111 0.13182761 0.10644349
000040 b3 83 c8 bc 27 5a 8c 3e 88 54 41 bd 12 f3 0a be
       -0.024476862 0.2741253 -0.047199756 -0.13569286
000050 62 9c 49 3d b1 35 29 3e 15 2e 8c 3d 61 be 64 bd
       0.049221404 0.16524388 0.06844727 -0.055845622
000060 6a c5 5c bd a4 42 4e be d9 79 1d 3e 73 12 da 3d
       -0.053899206 -0.20142609 0.15378512 0.1064805
000070 9e 72 3b be 95 49 9e 3d 5f 44 68 3d 84 86 69 bb
       -0.18305442 0.077288784 0.05670583 -0.0035633156
000080 02 20 9d 3e 3d e8 e8 3d aa bb 65 3e db c3 fa 3d
       0.30688483 0.11372421 0.2243487 0.12244388
000090 b2 21 36 3e 56 19 b6 bd 6f 7f dc 3c 62 f6 18 be
       0.17786291 -0.08891551 0.026916234 -0.14937738
0000a0 58 69 32 3c 35 4d 15 3e 1f 0f 2a 3e c3 26 1c bd
       0.010889374 0.14580233 0.1660733 -0.038122904
0000b0 c7 a8 8d 3d 47 b2 d5 3c c8 b0 10 bd d9 c8 12 bd
       0.06916957 0.026085986 -0.03532484 -0.035836075
0000c0 05 e3 1d 3d 28 da ac bc
       0.03854658 -0.021100119

fc2.weight f4 [10, 50]
000000 14 4e 05 3e c8 c4 75 be 52 84 24 3e fa e7 7a 3a
       0.13018066 -0.24000847 0.16066101 0.00095713104
000010 60 56 34 3e fa c7 92 be 36 02 80 be 76 b3 1c 3c
       0.17611074 -0.28668195 -0.25001687 0.009564271
000020 b1 7c 33 3e a7 32 81 be a3 18 d6 be 6a e1 bb bd
       0.17528035 -0.25233957 -0.4181567 -0.09173854
000030 18 2e 39 be 09 70 06 be 81 e2 14 3e 18 c2 6e 3c
       -0.1808399 -0.13128676 0.1453953 0.014572643
000040 10 ac 63 3e a2 17 0d bd a1 17 00 3e 6d 6b 84 3d
       0.22233605 -0.034446366 0.12509014 0.06465802
000050 ca 4c d5 be 09 3a a8 be 4e f4 cf be 91 9c 07 3e
       -0.41660148 -0.32856777 -0.40616077 0.13243319
000060 89 1c a5 3d 50 fe 4c 3e 10 d4 4d 3e 32 5b b5 bc
       0.08062083 0.20018888 0.20100427 -0.022138212
000070 3a 2e 9e 3d 36 6f 95 3c ad ca 80 be 46 64 41 be
       0.07723661 0.018241506 -0.2515463 -0.18885908
000080 28 d9 49 be 67 65 ad be f6 d5 ad 3d fa b7 99 be
       -0.19711745 -0.33866426 0.084880754 -0.30023175
000090 61 3e 82 be f0 bf ae bd 72 ba 84 be 46 7c 82 3e
       -0.25438216 -0.08532703 -0.25923496 0.25485438
0000a0 3e e1 ac be d8 4d 37 3e 97 f3 7f 3d f7 df eb be
       -0.33765596 0.17900789 0.062488165 -0.4606931
0000b0 43 5c d4 bc 21 c0 15 3e b3 74 5c be ce 35 8c be
       -0.0259229 0.14624073 -0.21528892 -0.273848
0000c0 25 f2 85 3d 6f 90 92 3e 6f b4 cb 3d ab 36 cc bd
       0.06540326 0.2862582 0.09946524 -0.099713646
0000d0 03 07 12 3e 62 86 76 3e d9 c0 78 be 04 1a 83 be
       0.14260487 0.240747 -0.24292316 -0.25605786
0000e0 8d ef 9c bd b4 45 5e be 7c e3 02 be da 4a a5 be
       -0.07662878 -0.21706277 -0.12782091 -0.3228367
0000f0 40 63 e7 be 07 9e 81 3d 0d 11 fa 3d 05 ca 47 3e
       -0.4519291 0.063289694 0.122102834 0.19510658
000100 e2 c9 3e 3c 6b fe 39 3e 56 52 b4 be bf ff 84 be
       0.011644812 0.18163459 -0.35219067 -0.2597637
000110 86 9a c1 bd 29 28 8d be dd be 94 3e 20 f0 ce 3b
       -0.09453301 -0.27569702 0.29051867 0.006315246
000120 b9 e4 86 3e 53 96 b0 be 0c 8d 92 3d 81 c8 3c be
       0.26346377 -0.34489688 0.07155809 -0.18435861
000130 90 1e b0 be 19 d7 31 be 23 d8 27 3d 8b 8d 3e bd
       -0.34398317 -0.1736721 0.04097761 -0.046521705
000140 bc 03 c0 3d d7 45 4f 3e 93 b4 c5 bd ee 63 ad 3d
       0.09375712 0.20241486 -0.096535824 0.08466326
000150 cc ad 7f 3e f0 6e 4a 3e eb 13 bc 3e a3 1d d1 be
       0.24968642 0.19768882 0.36733946 -0.40842924
000160 84 d4 a0 3e 76 80 1e bd 99 33 fc 3d 1a cc 73 3d
       0.31412137 -0.03869673 0.12314529 0.05952082
000170 e2 93 de bd 28 4f 03 be 61 9e 42 be 50 cf 54 bc
       -0.1086805 -0.12823164 -0.1900573 -0.01298888
000180 e8 c9 6e 3e 52 1a 21 be 97 e8 63 be 96 65 70 be
       0.23319209 -0.15732697 -0.22256695 -0.23476252
000190 68 38 9c be cf e7 12 be 28 4c 5c 3e a9 a2 83 3e
       -0.30511785 -0.1434624 0.21513426 0.25710037
0001a0 c7 0f 11 3e 30 91 fd bd 79 b1 da bd 5a 6f 64 be
       0.14166175 -0.12381208 -0.106783815 -0.22308102
0001b0 e2 1a 4c 3d f7 63 9c 3e 38 9f 82 be 22 77 7c 3c
       0.049830325 0.30545017 -0.255121 0.015409263
0001c0 04 d4 87 3e 87 39 35 3e 1e e6 3a 3e 71 90 84 be
       0.26528943 0.17697726 0.18251845 -0.2589145
0001d0 0e cc b1 3d e4 8e 67 bf 1b dd 30 3e 46 b2 33 3e
       0.086814985 -0.9045241 0.17271845 0.17548475
0001e0 df 99 3a bd bd 11 f0 3d e1 bf c6 3d 85 c1 b2 ba
       -0.0455569 0.11722133 0.09704567 -0.0013637996
0001f0 44 e1 78 3d 13 a4 97 3d 42 a9 f8 bd 95 e2 7f be
       0.060761705 0.074043415 -0.12141658 -0.24988778
000200 ac 93 02 3e 61 6d 88 be 57 34 67 3e 96 0d be bd
       0.12751645 -0.2664595 0.2257856 -0.09279935
000210 49 7f 19 be ef 8f 43 3e fa 7d 6a 3e 9a 38 76 be
       -0.14989962 0.19097875 0.22899619 -0.2404503
000220 92 6d 0b 3e 1e fb 7b 3e 71 58 63 3e a8 e0 31 3e
       0.13616017 0.24607512 0.22201706 0.17370856
000230 1b 3e d0 3b 97 ce 0e be ac dd 11 be 04 1c 05 be
       0.00635506 -0.13945995 -0.14244717 -0.12998968
000240 e2 9e 40 3e 93 33 7d be 5a 6e cb 3d 81 a9 7a be
       0.18810609 -0.24726705 0.09933157 -0.24478723
000250 78 79 d1 be bb e9 10 3e 0a c1 61 bc 8f 2a 23 3e
       -0.40912986 0.14151661 -0.013778934 0.15934204
000260 63 1d 57 3e c8 73 11 be 4b 68 82 be 05 e0 2f be
       0.21007304 -0.14204323 -0.25470194 -0.171753
000270 d6 8a 13 bd 4d e6 8a be 02 1b 32 3d 19 13 9b 3d
       -0.036021076 -0.2712883 0.043482788 0.07572002
000280 14 79 1a 3e 47 a5 b8 3d 7a cd e7 3d ac 7f 15 3c
       0.1508525 0.09015899 0.113184884 0.009124678
000290 b4 68 e1 3c d0 10 1a 3d 9d 68 ba bc 97 fe e3 be
       0.027515747 0.03761369 -0.022754962 -0.44530174
0002a0 24 2e e9 bd 59 06 11 3e 20 1c 52 3e 3b 46 70 bd
       -0.11385754 0.14162578 0.20518541 -0.058660727
0002b0 de 1b 51 3e f0 14 a1 3d fb 56 60 3e f5 6c 4f 3e
       0.20420787 0.07865322 0.2190818 0.20256408
0002c0 6c a1 78 be f2 5d a4 be 98 b8 45 3e b1 fc ae bd
       -0.24280328 -0.32102925 0.19308698 -0.08544291
0002d0 a1 03 f1 bd 10 40 3b be f5 55 ce bd 76 e4 83 be
       -0.1176827 -0.18286157 -0.10074989 -0.2576024
0002e0 0e cc b9 bd 83 cd cd be 54 e4 c2 be 8b f9 18 3e
       -0.090721235 -0.40195855 -0.38064826 0.14938943
0002f0 d8 b9 89 3e ec 42 64 be 95 52 da 3d 06 7d 2c 3d
       0.268996 -0.22291154 0.106602825 0.04211142
000300 df da a3 be b0 a1 85 3e c5 ca 40 be 22 bd 25 3d
       -0.32002923 0.2609992 -0.1882735 0.040463574
000310 ad b5 8c bd 5b 1e 49 3e be 9f 01 3e b0 ff 63 3e
       -0.068705894 0.19640486 0.12658593 0.22265506
000320 f9 0c 08 be 60 89 0d bb 31 fb 09 bc 4e cb ee be
       -0.13286199 -0.0021596774 -0.008421705 -0.46639484
000330 eb 39 97 be 6b 60 b1 3d a4 e5 26 3e 1e 00 71 3d
       -0.29536375 0.086609684 0.16298538 0.058838002
000340 a7 68 12 bf b4 1e 06 be 66 14 11 3d 67 c0 09 be
       -0.57190937 -0.1309765 0.035419844 -0.13452302
000350 14 2f 23 3e a5 63 59 3e bc 51 63 3e 68 06 15 be
       0.15935928 0.21229418 0.22199148 -0.14553225
000360 44 8b 37 3e e2 89 0e bc 1a 99 3f 3e eb 26 13 bf
       0.1792422 -0.008699866 0.18710747 -0.5748126
000370 1e 3c f9 bd db 03 25 3d c0 a7 5a be 85 2e 1a be
       -0.121696696 0.04028688 -0.21353054 -0.15056808
000380 b6 88 8d 3e 1b ec df be 73 f2 55 bc c8 30 58 3e
       0.27643365 -0.43734822 -0.013058293 0.21112359
000390 aa 59 a5 be cc 5d 9d 3b f4 b3 a2 be 79 1a 0d be
       -0.3229497 0.004802441 -0.31777918 -0.1377963
0003a0 f3 6c 4f 3c 32 ef 23 3e 9a 1e 26 3d 7d 8e 62 3e
       0.012660253 0.16009215 0.040556528 0.22124667
0003b0 3c 47 85 bd e6 86 fd be 80 d6 38 bd 48 ba 14 3e
       -0.065077275 -0.49516982 -0.04512644 0.14524186
0003c0 22 0d 8d be 30 f9 22 bf ec 4f a8 3e c7 6a 0d 3e
       -0.27549082 -0.6366148 0.32873476 0.13810264
0003d0 38 3b 24 3e 6d 81 dc bd 5f 49 bd bd 44 c0 2f 3e
       0.16038215 -0.107668735 -0.0924251 0.17163187
0003e0 96 31 4d 3e de 94 a5 be de 55 9c 3d 61 94 67 3e
       0.20038447 -0.3234014 0.07633565 0.22615196
0003f0 5f 7b e9 3d d3 69 71 be 25 58 09 bd c8 07 56 be
       0.11400484 -0.23575525 -0.033531327 -0.20901406

fc2.bias f4 [10]
000000 30 59 29 be 1c 54 3a 3e 11 31 f8 3c 0b cd d2 3b
       -0.16537929 0.18196148 0.030296834 0.0064331344
000010 f7 95 57 3d bd 9a 41 3e 5d 3a 69 bc 6b 8c 08 bd
       0.052633252 0.18906684 -0.014235106 -0.033337038
000020 72 46 9d be 59 4a a7 bd
       -0.30717808 -0.081684776

exp_avg f4 [50, 784]
000000 00 00 00 00 00 00 00 00 00 00 00 00 00 00 00 00
       0.0 0.0 0.0 0.0
000010 00 00 00 00 00 00 00 00 00 00 00 00 00 00 00 00
       0.0 0.0 0.0 0.0
000020 00 00 00 00 00 00 00 00 00 00 00 00 00 00 00 00
       0.0 0.0 0.0 0.0
000030 8e b2 b3 b2 a2 b7 44 b3 00 00 00 00 00 00 00 00
       -2.091954e-08 -4.580182e-08 0.0 0.0
000040 00 00 00 00 00 00 00 00 00 00 00 00 00 00 00 00
       0.0 0.0 0.0 0.0
000050 00 00 00 00 00 00 00 00 00 00 00 00 00 00 00 00
       0.0 0.0 0.0 0.0
000060 00 00 00 00 00 00 00 00 00 00 00 00 00 00 00 00
       0.0 0.0 0.0 0.0
000070 00 00 00 00 00 00 00 00 00 00 00 00 00 00 00 00
       0.0 0.0 0.0 0.0
000080 17 ce e2 88 9a 6c 32 ad a8 bb 9a b4 f2 99 92 b5
       -1.3650332e-33 -1.0142243e-11 -2.8821273e-07 -1.0922652e-06
000090 d7 dd e6 b3 c8 94 8f af ed c8 8f b5 95 77 3b b5
       -1.0750562e-07 -2.6117264e-10 -1.0712807e-06 -6.9836943e-07
0000a0 0b 73 e3 b3 a0 16 19 b3 25 2f 77 b5 93 f6 ce b5
       -1.05914374e-07 -3.5643666e-08 -9.2083275e-07 -1.5419959e-06
0000b0 26 26 51 b5 34 78 e4 b4 54 ab 63 b6 d4 f0 11 b6
       -7.791408e-07 -4.255577e-07 -3.3925362e-06 -2.1746864e-06
0000c0 74 cb b8 ae 67 1b 5d b0 91 ec ca af 48 d8 f7 a7
       -8.403492e-11 -8.043827e-10 -3.6911676e-10 -6.8790764e-15
0000d0 00 00 00 00 00 00 00 00 00 00 00 00 00 00 00 00
       0.0 0.0 0.0 0.0
0000e0 00 00 00 00 00 00 00 00 e5 cd 4b a7 73 2a 00 80
       0.0 0.0 -2.8283525e-15 -1.5228e-41
0000f0 c3 a2 18 aa 6b b0 23 ae 06 4b 25 b5 cc 1b 92 b5
       -1.3556781e-13 -3.72186e-11 -6.1576463e-07 -1.0885938e-06
000100 d8 f5 a0 b5 d0 16 85 b5 10 d2 0b b7 46 ce 2e b7
       -1.1992479e-06 -9.915912e-07 -8.333955e-06 -1.0419235e-05
000110 99 fd a3 b7 06 ca 83 b7 c1 49 35 b8 bd 85 e0 b7
       -1.9549205e-05 -1.5710491e-05 -4.322245e-05 -2.6765158e-05
000120 03 a3 c3 38 dd 3e e7 36 fe cf 83 b7 e4 8e 41 b7
       9.328688e-05 6.8916547e-06 -1.571327e-05 -1.1536966e-05
000130 60 e1 89 b6 20 11 a8 b5 81 3a ac b4 7a 3f 88 b2
       -4.1091553e-06 -1.252196e-06 -3.2080064e-07 -1.586135e-08
000140 4b 6d 6c ad da 1b 85 ab 00 00 00 00 00 00 00 00
       -1.3439315e-11 -9.457949e-13 0.0 0.0
000150 00 00 00 00 00 00 00 00 08 6b e0 a7 ee 94 10 b4
       0.0 0.0 -6.2288533e-15 -1.3465225e-07
000160 86 62 e7 b3 01 95 3f b4 28 f4 d4 b4 d6 e2 36 b8
       -1.0774697e-07 -1.7842468e-07 -3.9665724e-07 -4.360344e-05
000170 1b 8c 90 b8 5a 96 9b b8 89 63 07 b8 db 88 05 b9
       -6.892552e-05 -7.418981e-05 -3.2279208e-05 -0.00012734851
000180 3c 82 98 b8 de 72 ab b8 eb 03 e7 b8 f4 f2 6d b8
       -7.272183e-05 -8.175311e-05 -0.00011015668 -5.673147e-05
000190 30 8e 1a b8 af b7 91 b8 17 14 93 b7 75 29 a6 38
       -3.6848884e-05 -6.9483525e-05 -1.753312e-05 7.923219e-05
0001a0 c0 fa 13 38 22 c8 f0 b6 5e 55 81 b6 13 c4 dd b7
       3.528106e-05 -7.175856e-06 -3.8544376e-06 -2.6436557e-05
0001b0 f6 e5 6a b8 61 0e cd ae 5e 26 2d af 00 00 00 00
       -5.6004115e-05 -9.324875e-11 -1.5747889e-10 0.0
0001c0 00 00 00 00 04 00 00 80 37 84 fc 98 a6 ca ec b3
       0.0 -6e-45 -6.5273976e-24 -1.1026468e-07
0001d0 7a 6c cf b3 55 e2 de b3 58 8c 17 38 2a 97 8c b8
       -9.6589204e-08 -1.037885e-07 3.613191e-05 -6.703877e-05
0001e0 58 85 1e b9 10 e6 2e b9 0b 7c 47 38 34 71 6f 39
       -0.00015117729 -0.00016679638 4.756082e-05 0.00022834988
0001f0 de 07 f8 38 a4 73 35 38 91 0c b6 b8 ac d5 92 39
       0.00011827027 4.326146e-05 -8.680777e-05 0.00028006488
000200 02 68 f7 39 9f d2 d7 39 63 2d 50 39 3d e6 a3 38
       0.00047189003 0.0004116492 0.00019853334 7.815331e-05
000210 70 4f f5 36 ae a2 56 b8 cf 06 c3 b8 6a b1 ad b8
       7.3108167e-06 -5.1173083e-05 -9.299593e-05 -8.282329e-05
000220 9d a1 94 b7 20 9b bd b6 e9 d5 39 b7 e0 e2 39 b7
       -1.7718232e-05 -5.650698e-06 -1.1076664e-05 -1.1079683e-05
000230 00 00 00 00 00 00 00 00 e5 c2 b1 9d 79 1b 11 37
       0.0 0.0 -4.7053026e-21 8.64907e-06
000240 95 3e 15 38 50 df 14 38 1e 30 49 38 7c d2 d6 b8
       3.5582652e-05 3.5493926e-05 4.7966947e-05 -0.00010243521
000250 9d e4 0c b9 9a da cc 37 89 3c 5b 39 c5 09 f4 39
       -0.00013436606 2.442049e-05 0.00020908019 0.00046546586
000260 ec ee ef 39 ee c5 c6 39 b1 cd c0 39 0c 60 12 3a
       0.00045763643 0.00037912972 0.00036774346 0.000558377
000270 d0 93 05 3a 4d d7 51 39 f6 5f 98 b6 48 f6 65 b9
       0.0005095573 0.00020011999 -4.5411243e-06 -0.00021930889
000280 6d 25 4f b9 c8 ee ec b8 7b ad a3 b8 31 cd 86 b8
       -0.00019755 -0.000112978334 -7.804759e-05 -6.427838e-05
000290 73 82 cd b7 38 d9 22 b8 9b a4 1d b8 d8 3a 89 b7
       -2.449865e-05 -3.882611e-05 -3.7585018e-05 -1.6359074e-05
0002a0 00 00 00 00 01 46 d4 85 fe 04 f3 b6 d1 49 12 37
       0.0 -1.99621e-35 -7.2425455e-06 8.719465e-06
0002b0 20 b5 f4 37 92 28 03 39 55 99 02 39 37 aa 56 38
       2.917141e-05 0.00012508247 0.00012454887 5.11801e-05
0002c0 64 83 41 39 06 59 a6 39 4a d5 09 3a 9e d2 19 3a
       0.00018454861 0.00031728315 0.0005257918 0.0005867871
0002d0 bb 40 ee 39 d8 91 20 39 fd 65 86 b8 69 87 24 39
       0.00045443125 0.0001531312 -6.408615e-05 0.00015690703
0002e0 73 85 0d 39 a2 05 1f 39 86 fe cf b7 18 23 27 b9
       0.00013496522 0.0001516552 -2.4794845e-05 -0.00015939435
0002f0 3e a7 7a b9 ab 7a d1 b8 b1 2d 59 b8 1a cd 21 36
       -0.0002390416 -9.988745e-05 -5.1779385e-05 2.4110254e-06
000300 7b ad 0d b7 7c f1 df b6 47 64 2f 37 bd 06 f6 1a
       -8.4446465e-06 -6.6740304e-06 1.04541605e-05 1.017541e-22
000310 69 1b a4 85 e7 fb d7 b1 55 3d fd b6 7c 02 8d b7
       -1.5432555e-35 -6.2859615e-09 -7.5471276e-06 -1.6809667e-05
000320 3d 69 b0 b7 29 bc cf 39 80 03 ae 39 d7 25 83 39
       -2.102984e-05 0.00039622307 0.00033190474 0.0002501446
000330 3f 4d 05 3a 26 66 25 3a 3c 05 67 3a 4a 70 0e 3a
       0.0005085058 0.0006309472 0.00088127307 0.00054336025
000340 9c 97 aa 39 9a f2 37 38 36 d5 de b7 e2 5f 57 37
       0.00032537885 4.385654e-05 -2.6563746e-05 1.2837323e-05
000350 2c dd 87 b8 c9 a9 53 b9 fe 0d 11 ba c3 95 83 b9
       -6.478498e-05 -0.00020185778 -0.0005533396 -0.00025097848
000360 47 b7 05 b9 de c3 d2 b8 ed c9 50 b9 cb 1f 92 b8
       -0.00012752145 -0.000100500634 -0.00019911649 -6.9677444e-05
000370 bf fa d2 38 c0 55 14 39 fc e0 e3 38 42 95 a8 1b
       0.000100602854 0.00014146324 0.0001086611 2.7889724e-22
000380 99 a3 a6 86 b9 ad bc b2 aa 79 9d b6 31 dd d9 b7
       -6.2682645e-35 -2.196508e-08 -4.693128e-06 -2.5971416e-05
000390 1a 74 36 b8 1d a6 9b 39 cd 07 a7 39 26 0c a1 39
       -4.350031e-05 0.00029687668 0.00031858534 0.00030717364
0003a0 b2 76 a1 39 7d bd c1 39 e9 2d a8 39 75 99 f8 39
       0.00030796748 0.00036953008 0.00032077663 0.0004741658
0003b0 89 4a a5 39 2a 60 b3 39 27 41 1d 38 ae e7 85 b8
       0.00031526785 0.00034213188 3.7492395e-05 -6.385088e-05
0003c0 a5 91 ce b9 75 28 90 b9 a8 ed 49 ba a9 c4 14 ba
       -0.00039399895 -0.00027495963 -0.0007702955 -0.00056750566
0003d0 bc 31 cf b9 d6 3b 9a b9 de 7c c5 b9 8f 87 a5 36
       -0.00039519172 -0.0002941775 -0.000376678 4.9331643e-06
0003e0 b6 6b 42 39 f3 67 0e 39 01 27 57 37 3e 2c 26 ab
       0.00018541407 0.000135809 1.282408e-05 -5.9036445e-13
0003f0 12 34 17 9a 65 06 2a b2 dd a9 23 b5 38 be cf b7
       -3.126813e-23 -9.896756e-09 -6.0969415e-07 -2.47649e-05

exp_avg_sq f4 [50, 784]
000000 00 00 00 00 00 00 00 00 00 00 00 00 00 00 00 00
       0.0 0.0 0.0 0.0
000010 00 00 00 00 00 00 00 00 00 00 00 00 00 00 00 00
       0.0 0.0 0.0 0.0
000020 00 00 00 00 00 00 00 00 00 00 00 00 00 00 00 00
       0.0 0.0 0.0 0.0
000030 d8 a1 f5 2d 1b 3e 13 2f 00 00 00 00 00 00 00 00
       2.7925148e-11 1.3391636e-10 0.0 0.0
000040 00 00 00 00 00 00 00 00 00 00 00 00 00 00 00 00
       0.0 0.0 0.0 0.0
000050 00 00 00 00 00 00 00 00 00 00 00 00 00 00 00 00
       0.0 0.0 0.0 0.0
000060 00 00 00 00 00 00 00 00 00 00 00 00 00 00 00 00
       0.0 0.0 0.0 0.0
000070 00 00 00 00 00 00 00 00 00 00 00 00 00 00 00 00
       0.0 0.0 0.0 0.0
000080 a6 39 d3 27 b3 3c 90 29 a6 18 18 2f 1f 67 35 30
       5.8626767e-15 6.405414e-14 1.3833076e-10 6.599396e-10
000090 e6 8c f2 30 73 af 31 30 d5 d7 13 30 53 01 72 30
       1.7647863e-09 6.4641553e-10 5.3785004e-10 8.804097e-10
0000a0 e9 bc 35 31 09 37 bb 30 9b 43 1a 32 2c 39 84 32
       2.644635e-09 1.3621683e-09 8.9793515e-09 1.5392821e-08
0000b0 7b a6 d8 32 60 5c b6 31 6e df fb 30 3a d9 4b 30
       2.5221416e-08 5.307399e-09 1.8326156e-09 7.415967e-10
0000c0 59 5f 13 30 88 16 8e 30 79 72 cf 30 f5 5b cf 2e
       5.3613786e-10 1.0338264e-09 1.5093767e-09 9.429605e-11
0000d0 00 00 00 00 00 00 00 00 00 00 00 00 00 00 00 00
       0.0 0.0 0.0 0.0
0000e0 00 00 00 00 00 00 00 00 97 f0 5a 25 69 6f 30 28
       0.0 0.0 1.8990001e-16 9.794121e-15
0000f0 07 af 54 2c 79 2c 05 2b f7 6e 96 2f 2d 93 da 30
       3.0224172e-12 4.731281e-13 2.7363686e-10 1.5903417e-09
000100 64 c5 15 32 66 4c 79 33 e2 47 75 33 e7 fe 24 33
       8.717823e-09 5.8044314e-08 5.7108885e-08 3.8416058e-08
000110 be 58 ab 33 9d f2 85 34 96 d4 6e 34 06 21 9d 34
       7.97895e-08 2.4949705e-07 2.2242816e-07 2.9267557e-07
000120 05 a6 4e 34 2c a5 20 34 4a b9 3c 34 4a e7 eb 33
       1.9245643e-07 1.496125e-07 1.7576272e-07 1.09851115e-07
000130 00 16 13 33 20 c7 34 32 ca 09 91 31 0a 77 9d 30
       3.4246114e-08 1.0522655e-08 4.2211683e-09 1.1457086e-09
000140 e6 48 f3 32 b3 c7 4a 32 00 00 00 00 00 00 00 00
       2.8322074e-08 1.1803354e-08 0.0 0.0
000150 00 00 00 00 00 00 00 00 63 91 23 2b 6b 43 6d 2d
       0.0 0.0 5.8111e-13 1.348686e-11
000160 f7 78 71 30 74 f9 d0 31 79 cd 66 32 1c a9 33 33
       8.784719e-10 6.0819563e-09 1.3434481e-08 4.183049e-08
000170 87 8a eb 33 c0 e1 4d 34 e6 6b 8d 34 e7 30 b2 34
       1.0968238e-07 1.917424e-07 2.6341803e-07 3.3190665e-07
000180 b5 ae fb 34 b5 42 76 35 fa 4d 9b 35 f6 3d 94 35
       4.687951e-07 9.1739213e-07 1.1571094e-06 1.1044892e-06
000190 16 22 79 35 d0 ef 4e 35 f6 40 23 35 b8 01 01 35
       9.280933e-07 7.7089953e-07 6.081676e-07 4.8058746e-07
0001a0 40 16 8a 34 01 a4 02 34 d5 d8 21 33 21 49 31 32
       2.5720692e-07 1.2166858e-07 3.768294e-08 1.0319384e-08
0001b0 c8 9e 0f 33 9c c2 57 32 11 ff 34 2f 00 00 00 00
       3.3439193e-08 1.2558896e-08 1.6461522e-10 0.0
0001c0 00 00 00 00 a2 03 08 27 5e dd 1e 2d 80 e1 9e 2d
       0.0 1.887576e-15 9.030414e-12 1.8062662e-11
0001d0 d8 93 47 31 db 34 08 33 dd 2f 97 33 c8 5d 65 34
       2.904235e-09 3.171304e-08 7.040192e-08 2.1361404e-07
0001e0 45 c8 fd 34 89 49 68 35 29 14 a0 35 f7 ad e2 35
       4.7270638e-07 8.653374e-07 1.1926796e-06 1.6888943e-06
0001f0 e7 52 18 36 63 d9 52 36 55 1e 80 36 26 8b 81 36
       2.269802e-06 3.1418974e-06 3.8182284e-06 3.8606986e-06
000200 86 28 66 36 bf 39 31 36 3f 91 04 36 81 2e b6 35
       3.4296258e-06 2.6408668e-06 1.9754077e-06 1.3573591e-06
000210 8c 41 6e 35 52 20 f8 34 28 1c 6f 34 3a 2a 9c 33
       8.875729e-07 4.6217116e-07 2.2268853e-07 7.271997e-08
000220 07 87 84 33 67 2f d4 32 0b 25 94 30 95 89 b3 2e
       6.17129e-08 2.4701604e-08 1.0778946e-09 8.164417e-11
000230 00 00 00 00 00 00 00 00 af 0f cd 2b f9 12 29 30
       0.0 0.0 1.4570479e-12 6.1508804e-10
000240 2f 19 91 32 6b 42 1f 34 44 de b4 34 6f b9 2f 35
       1.6891674e-08 1.4832192e-07 3.3689332e-07 6.546242e-07
000250 cf 2c a7 35 a0 b0 03 36 23 bd 4f 36 18 4d 91 36
       1.2455511e-06 1.962333e-06 3.0955496e-06 4.3303116e-06
000260 0d 02 c5 36 1c 57 f2 36 e0 f6 06 37 ab 3d 0b 37
       5.8712963e-06 7.222303e-06 8.0445025e-06 8.299404e-06
000270 4c 8a ff 36 b5 13 cb 36 24 b3 99 36 83 71 57 36
       7.615692e-06 6.0521656e-06 4.58061e-06 3.210357e-06
000280 96 06 0e 36 d6 b3 a8 35 94 6b 37 35 03 ab 95 34
       2.1163482e-06 1.2569315e-06 6.832936e-07 2.787784e-07
000290 7b d1 ae 33 b3 a5 d6 32 ee ee ab 30 30 e1 28 2f
       8.140611e-08 2.498823e-08 1.2509795e-09 1.5359514e-10
0002a0 00 00 00 00 46 d4 c7 1c 09 3a 04 2f 20 64 3c 31
       0.0 1.3223587e-21 1.2025948e-10 2.7414515e-09
0002b0 37 1a 55 33 67 68 9d 34 ed 2b 48 35 93 54 b9 35
       4.961677e-08 2.9319492e-07 7.4569726e-07 1.3808188e-06
0002c0 c8 b8 1d 36 3c 9f 7e 36 47 c8 af 36 5c 2a ee 36
       2.350238e-06 3.7941636e-06 5.2387218e-06 7.097884e-06
0002d0 9c bf 18 37 71 5c 34 37 f3 9d 45 37 65 35 4c 37
       9.1045185e-06 1.0750359e-05 1.177889e-05 1.2171779e-05
0002e0 a4 b8 3b 37 61 b2 20 37 5e 91 f5 36 81 a0 b6 36
       1.1189059e-05 9.578275e-06 7.318492e-06 5.442708e-06
0002f0 79 46 7a 36 35 a0 0d 36 a0 13 a0 35 ca 58 f7 34
       3.7293923e-06 2.110389e-06 1.1926641e-06 4.6071938e-07
000300 64 23 0e 34 01 00 b4 32 25 99 ae 30 f7 e2 41 2f
       1.3237656e-07 2.095476e-08 1.2703693e-09 1.7633882e-10
000310 8b d4 ec 22 79 cf ac 2e a0 a0 cf 30 eb e2 a3 32
       6.4192967e-18 7.858509e-11 1.5106885e-09 1.9078888e-08
000320 65 9f 0f 34 06 32 21 35 4f c5 b5 35 84 eb 14 36
       1.33759e-07 6.004997e-07 1.3542975e-06 2.2190807e-06
000330 e9 f5 74 36 38 53 b4 36 b7 2c f9 36 3a f3 26 37
       3.6501972e-06 5.374106e-06 7.4259838e-06 9.951002e-06
000340 f9 6b 3f 37 68 98 4f 37 00 a8 59 37 a5 9e 5d 37
       1.14096265e-05 1.2373646e-05 1.29733235e-05 1.3209564e-05
000350 2f 38 55 37 09 9c 33 37 58 18 16 37 be a4 e7 36
       1.2708871e-05 1.0705561e-05 8.946365e-06 6.903515e-06
000360 f4 ab a5 36 34 06 4e 36 6f 90 e2 35 df 9a 49 35
       4.937401e-06 3.0700003e-06 1.6880348e-06 7.51037e-07
000370 33 37 6f 34 54 1c 6b 33 10 22 3d 32 0d 1b cf 2e
       2.2278691e-07 5.4740966e-08 1.1008993e-08 9.4180753e-11
000380 9e 84 48 2f 55 2e 0d 30 b9 91 e5 31 dd 05 45 33
       1.8237009e-10 5.1361343e-10 6.681344e-09 4.587297e-08
000390 06 84 76 34 d3 c1 56 35 33 36 f6 35 0d 4d 5f 36
       2.2958565e-07 8.0003264e-07 1.8344202e-06 3.327444e-06
0003a0 a6 ad a6 36 d6 10 e8 36 19 a9 1e 37 56 07 36 37
       4.967401e-06 6.9160988e-06 9.456905e-06 1.0849753e-05
0003b0 7b 43 3c 37 48 1b 42 37 44 7a 43 37 b0 72 48 37
       1.1221385e-05 1.1569653e-05 1.1651373e-05 1.1947632e-05
0003c0 ce 00 44 37 aa 3b 35 37 70 f0 24 37 90 c8 06 37
       1.1682698e-05 1.0802332e-05 9.831143e-06 8.0337195e-06
0003d0 7f 17 c2 36 e5 51 7f 36 7f f9 10 36 73 5d 89 35
       5.784386e-06 3.804563e-06 2.1602898e-06 1.0234493e-06
0003e0 52 c4 99 34 50 45 c8 33 67 bf 4c 32 c2 94 2b 30
       2.8641313e-07 9.3258336e-08 1.1917883e-08 6.2420835e-10
0003f0 3a 43 9e 2e 02 c4 51 30 63 80 c4 31 ef d4 95 33
       7.19695e-11 7.63123e-10 5.7189466e-09 6.9770856e-08

exp_avg f4 [50]
000000 63 1e 14 3a 07 46 21 3a bb c5 8e 3a 73 2f 67 b9
       0.000565028 0.00061520975 0.0010892669 -0.00022047553
000010 04 1f 04 bb 22 f8 58 ba c4 f5 09 3a 47 17 b9 39
       -0.0020160088 -0.0008276721 0.0005262757 0.00035303293
000020 00 5c 59 ba 41 46 66 39 4c 27 eb 3a 97 92 92 2b
       -0.0008291602 0.00021960681 0.0017940789 1.0414611e-12
000030 82 48 ad 3a 14 06 6b ba bc b3 7c ba 1a a0 18 ba
       0.0013220462 -0.0008965444 -0.00096398196 -0.0005822197
000040 72 26 b9 ba 24 7a 3e b8 a3 64 cf ba 58 b9 58 ba
       -0.0014125837 -4.5413282e-05 -0.0015822839 -0.00082673645
000050 5d ed 04 3b b1 5e 54 3b 2f a3 b1 3a 33 7a 5a ba
       0.002028308 0.0032405073 0.0013552661 -0.0008334249
000060 2b 52 c5 ba 77 86 3b ba 57 0c 08 3a af be 04 3b
       -0.0015054395 -0.0007153521 0.0005189827 0.0020255258
000070 b5 c2 1c bb 60 b1 13 ba ff 1d b1 ba c8 75 d3 b9
       -0.0023919765 -0.0005634036 -0.0013512968 -0.0004033281
000080 a8 bf 10 3a 9c c3 ab b9 e7 62 a8 39 24 38 23 b9
       0.0005521723 -0.00032761402 0.00032117145 -0.00015565805
000090 3d dd 7a 39 9d 0b d7 ba 84 ef 7d 3b b1 88 5d bb
       0.00023924276 -0.0016406659 0.0038747499 -0.0033803398
0000a0 4e 94 9b 3a 94 4a aa 39 94 3e 04 3b e6 29 05 3a
       0.001186976 0.00032480492 0.00201789 0.0005079791
0000b0 92 61 8e 3a 0e ec ad ba 82 5e c3 b9 38 59 94 3a
       0.0010862818 -0.0013269202 -0.00037263712 0.0011318093
0000c0 da 99 e5 3a 99 06 d4 b9
       0.0017517165 -0.00040440707

exp_avg_sq f4 [50]
000000 f5 41 f5 37 54 fd 1c 38 dc 33 24 38 44 76 0e 38
       2.923699e-05 3.742923e-05 3.9148945e-05 3.396558e-05
000010 90 b9 4c 38 9e 6d 2b 38 60 46 fc 37 a5 d4 f5 37
       4.881021e-05 4.0871666e-05 3.0073512e-05 2.9305296e-05
000020 f1 cb 0c 38 bc 2d 21 38 00 e5 0a 38 3c 59 26 33
       3.3568536e-05 3.8427985e-05 3.3115037e-05 3.8731045e-08
000030 62 02 2d 38 3d 58 16 38 5b 3f d0 37 c2 0d e2 37
       4.1248633e-05 3.5844965e-05 2.4825034e-05 2.6947706e-05
000040 01 3a b1 37 50 a1 86 38 70 45 a7 37 8c 3f 2a 38
       2.1127054e-05 6.419665e-05 1.9940286e-05 4.059034e-05
000050 5b 6a 2a 38 cd 1d 07 38 01 78 10 38 31 a4 b2 37
       4.063021e-05 3.2214262e-05 3.4444038e-05 2.1295711e-05
000060 0a 82 6b 38 5b 6e e6 37 3e 31 c2 37 43 d4 15 38
       5.6149474e-05 2.7469525e-05 2.3149532e-05 3.5722052e-05
000070 80 a8 32 38 19 ec d8 37 ad 0c 46 38 d1 a3 4a 38
       4.2595435e-05 2.5859148e-05 4.7218684e-05 4.831312e-05
000080 8e 88 19 38 6d ab 29 38 9a e2 21 38 3a b3 07 38
       3.660522e-05 4.0452393e-05 3.859643e-05 3.2353426e-05
000090 de e3 1e 38 ba a3 09 38 f9 5f 83 38 93 3c 31 38
       3.7882353e-05 3.2815828e-05 6.264443e-05 4.2256503e-05
0000a0 7a 15 a2 37 68 c8 6a 38 e3 f2 20 38 e8 36 0f 38
       1.9321906e-05 5.597659e-05 3.837318e-05 3.4144992e-05
0000b0 b5 70 0d 38 04 11 2d 38 e3 41 0b 38 4e 80 23 38
       3.3721986e-05 4.126226e-05 3.3201544e-05 3.898172e-05
0000c0 88 86 14 38 a8 78 40 38
       3.541124e-05 4.5888737e-05

exp_avg f4 [10, 50]
000000 a6 95 7b bc a5 3c 8a bc c1 93 e5 bc 57 f5 e7 bb
       -0.015355503 -0.01687462 -0.028024556 -0.0070788073
000010 82 cd 7d bc a0 3c 52 bc cb e6 7e 3a 3e 8a 8f bc
       -0.015490891 -0.012831837 0.0009723722 -0.017521974
000020 af 53 15 bc 4a 6b 85 bb 64 07 21 bc 9f ee 4f 26
       -0.00911419 -0.0040716277 -0.009828422 7.2140944e-16
000030 33 a7 da bb b4 d2 25 bc 24 77 f0 b8 00 c1 e8 bb
       -0.0066727637 -0.010121036 -0.000114662835 -0.0071030855
000040 6e f6 a8 bc 11 8f 9a 3a e0 fa 41 bc 0d 4d 0f bc
       -0.02062532 0.0011791905 -0.011839598 -0.008746398
000050 c9 6a 31 bb 98 d6 41 bb de 85 7e ba ea 1a d6 bc
       -0.0027071706 -0.002957737 -0.0009709279 -0.02613588
000060 67 58 89 bc aa 23 53 3b 63 4b 97 bc 81 40 61 bc
       -0.016765786 0.0032217302 -0.018468564 -0.013748289
000070 90 49 88 bc 51 fd 6a bc a9 97 56 bc 05 fb 97 b9
       -0.01663664 -0.014342622 -0.013097682 -0.00028987988
000080 7b be f7 bb c4 28 13 bb 73 64 29 bc 93 18 29 3a
       -0.007560549 -0.0022454718 -0.01033889 0.00064505
000090 b1 33 4f b8 7e 03 28 ba 67 d3 5d 39 06 c4 27 bc
       -4.9400787e-05 -0.0006409212 0.00021154956 -0.010239607
0000a0 b8 f8 50 ba 27 69 63 bc d2 5d bf ba a1 bc 23 3a
       -0.00079716323 -0.013880051 -0.0014600104 0.00062460644
0000b0 c2 11 e4 bb ea 6b 7c bc d1 15 5c 3a a7 fe ac 3a
       -0.0069601247 -0.015406588 0.0008395585 0.0013198451
0000c0 c0 50 29 3a f2 14 d1 bb 69 76 5b 3a e8 b8 ad 3b
       0.0006458871 -0.0063806707 0.00083718315 0.0053015836
0000d0 44 f6 08 3b e5 dc d5 3b 54 77 8f 3b 59 d4 dd 3a
       0.002089874 0.006526577 0.0043782387 0.0016924246
0000e0 3c e6 89 bb 6e d2 7d 3a bf b1 a0 b9 7a 98 cd 38
       -0.0042083543 0.00096825405 -0.0003065001 9.803563e-05
0000f0 d9 1e 31 3b e6 b9 ed 23 a5 d7 05 ba 5b 28 cf 3b
       0.0027026443 2.5774323e-17 -0.0005105681 0.0063219494
000100 c0 47 bd 3a 81 cc c2 3a ad b7 7a b9 c5 76 96 bb
       0.0014440939 0.0014861972 -0.00023910282 -0.004591795
000110 c3 c1 9d 3b 65 59 8a 3b 08 50 92 3b 5a df 42 ba
       0.004814358 0.0042220824 0.004465107 -0.00074337947
000120 eb af 98 3b 75 96 9f 3b 23 18 9e ba a1 71 a4 3a
       0.004659643 0.004870231 -0.0012061637 0.0012546071
000130 f6 d2 a0 3a 27 24 37 39 d6 af d8 3b 82 0e 9c bb
       0.0012269903 0.00017465708 0.006612758 -0.0047624717
000140 08 ea 0e 3c 6a 65 1d bb fc 76 4d bb 10 0f b9 3b
       0.00872279 -0.0024016746 -0.0031351438 0.0056475475
000150 74 24 a3 3b 43 e7 4a ba 59 18 35 bb 77 d4 c0 3a
       0.004978711 -0.0007740149 -0.002763292 0.0014711757
000160 c1 cb 5b 3b e3 0e a4 3b 87 87 c3 39 56 2b 51 b9
       0.0033538195 0.0050066574 0.00037294274 -0.00019947937
000170 5a 77 24 39 06 e5 d4 b9 16 fe 5b ba a6 62 a0 bb
       0.0001568472 -0.00040606427 -0.0008392049 -0.0048945723
000180 9c 7f 07 3c cd 05 c2 bb f7 4f a5 bb f1 fe f8 ba
       0.008270171 -0.0059211017 -0.005044933 -0.0018996877
000190 14 48 8b bb b8 6d 9e bb 5f 5c 45 bb 07 f5 eb bb
       -0.0042505357 -0.004834857 -0.0030114872 -0.0072008404
0001a0 35 90 d1 39 b2 d3 70 3b 6e 1b f0 3a ea c4 00 3a
       0.0003997103 0.0036747274 0.0018318722 0.0004912155
0001b0 8e 5a e8 3a 27 09 bc 3b 90 ab b6 bb 0b c9 00 2a
       0.0017727183 0.0057383957 -0.005574651 1.1438435e-13
0001c0 2f fb 54 bb 97 c3 b8 39 df d0 88 3b 71 81 8f 3a
       -0.003249835 0.0003524094 0.00417529 0.0010948611
0001d0 6f ad 4f 3c d8 8a b8 3b e4 33 88 3b a0 0c 30 3b
       0.012675627 0.005631786 0.0041565765 0.0026862994
0001e0 03 59 46 bb 4d cb 13 bb 0d f5 1e 3a 5b f5 9b 3a
       -0.0030265457 -0.0022551597 0.0006063737 0.0011898683
0001f0 7a fb d3 bb ca bb e9 3b 2e 34 d8 3a d2 d2 0f 3b
       -0.0064691873 0.007132982 0.0016495043 0.0021945727
000200 fb 3d 92 3b db 84 bc 3b 60 0d e2 3a 8e 9c 63 ba
       0.004462955 0.0057531423 0.0017246418 -0.0008682691
000210 04 a8 18 bb 40 1d 69 bb d3 e0 c5 ba 9b e1 e2 b9
       -0.0023293504 -0.0035570413 -0.001509691 -0.00043274168
000220 25 6d 08 bc e0 7b 38 3b 43 30 01 39 28 18 91 3b
       -0.008326803 0.0028150007 0.00012320378 0.0044279285
000230 af 50 60 3b 77 a3 06 3a 0f a0 cc ba 83 20 0e 3b
       0.0034227779 0.00051360525 -0.0015611666 0.002168686
000240 52 9b d7 bb 17 8e f4 3b 7e b0 dc 39 25 0f b7 b9
       -0.006579795 0.0074632275 0.00042093167 -0.00034915764
000250 80 f7 52 3b 1b 2d 39 3c 83 89 e3 3a 68 f9 9e 39
       0.0032190979 0.011302258 0.0017359707 0.0003032193
000260 e0 3e d9 3a b8 53 2a 3b e9 4c 8d ba cc 07 74 3a
       0.0016574524 0.0025989842 -0.0010780367 0.0009309023
000270 84 48 89 3a f8 9a fe 3a 70 c8 68 ba 36 d8 41 bb
       0.0010473882 0.0019424846 -0.0008879965 -0.0029578335
000280 3e dd 4e 3b cc 5d 90 26 95 ef ae 3a 77 21 76 3a
       0.0031564976 1.0017431e-15 0.0013346547 0.0009389142
000290 68 10 f3 b9 49 35 96 3a c6 0f 12 38 31 5f 28 3b
       -0.00046360795 0.0011459972 3.4823803e-05 0.0025691504
0002a0 3a 7b 53 b9 18 18 c9 ba 07 b0 5b 3a 56 41 97 39
       -0.00020168434 -0.0015342264 0.0008380417 0.00028849643
0002b0 3a 5b b9 bb 80 6b 87 39 b7 3c d8 b9 1b 84 1f ba
       -0.005656627 0.000258293 -0.00041243967 -0.0006085054
0002c0 ac 2e 97 b9 e1 dd 77 3a 21 a8 e8 3a d5 91 79 3b
       -0.00028835738 0.0009455365 0.0017750302 0.0038081307
0002d0 05 b7 fb 39 9e 8e ae 3b 11 7d 63 3a a1 ad 8b 3b
       0.0004801081 0.00532706 0.0008677999 0.0042626415
0002e0 a5 9e 11 3a 69 58 e1 3a 01 3f bd 3a 09 94 a7 ba
       0.0005554951 0.0017192486 0.0014438332 -0.0012785207
0002f0 34 2a 5d bb 3a bb 8c 3a c8 ac 97 bb 80 6b af ba
       -0.003374708 0.001073695 -0.0046287514 -0.0013383478
000300 17 f9 58 3a 8f c5 b0 ba 10 63 7e b9 27 72 96 3b
       0.00082768634 -0.0013486611 -0.00024260231 0.0045912447
000310 b0 0e e5 b8 b9 f8 0b 3b 94 61 6d 3a f8 6c e9 ba
       -0.00010922307 0.0021357967 0.0009055373 -0.0017808964
000320 7b 30 a4 3a b8 5d 07 3b e7 5f 37 3a b9 3d cf 3a
       0.0012526655 0.0020655226 0.00069951866 0.0015811241
000330 35 b9 e4 b9 31 b0 6c 3b 97 1c da 3b 66 ec 76 ba
       -0.0004362554 0.003611576 0.00665624 -0.00094193814
000340 6e 36 49 3b 83 b0 c3 3a 8e 6a d1 3b 8c 77 99 aa
       0.0030702609 0.0014929924 0.006390876 -2.7261212e-13
000350 72 43 45 3b a3 52 4a 3b be b0 e5 ba 29 1d 17 3b
       0.0030100015 0.003087201 -0.0017523987 0.0023058152
000360 61 3d 2c 3b a7 c3 0f 3c fb 7f ae ba f9 ac f6 39
       0.0026281702 0.0087746745 -0.0013313288 0.0004704965
000370 24 ab e6 3a 8b f7 9f 3b 54 76 53 ba b7 96 46 3b
       0.0017598611 0.0048818043 -0.00080666435 0.0030302235
000380 15 32 d4 3b 83 d8 61 3b 28 37 31 ba c0 5c 38 bb
       0.006475697 0.0034461326 -0.0006760233 -0.0028131455
000390 b8 26 a1 3a fb 74 52 3b a0 13 fa b9 76 68 74 3b
       0.0012294864 0.0032113183 -0.00047698338 0.003729371
0003a0 da 11 8d 3b 72 40 a6 ba 3c 6f 0d bb cf 61 82 3a
       0.0043051066 -0.0012684001 -0.0021581193 0.0009947362
0003b0 6f 12 97 3b d6 eb 50 3b c1 5e 09 3b 52 86 39 bb
       0.0046103518 0.003187885 0.0020961019 -0.002830882
0003c0 df ed d5 b8 e9 e1 51 3b dc 60 80 ba b2 c9 4d 3b
       -0.000102009384 0.0032025522 -0.0009794491 0.0031400737
0003d0 f5 9f 94 3b 1c 66 26 3b a8 aa b5 39 a8 13 d5 3b
       0.00453567 0.0025390452 0.0003465016 0.0065025873
0003e0 55 b2 c6 3b 55 e5 b7 3a 30 5a 80 3b 22 ae 4b 3c
       0.0060637393 0.0014030138 0.003917001 0.012431653
0003f0 f4 91 8c 3b 44 cb 9f 3b ad 74 80 3b 7c e9 18 3c
       0.00428986 0.004876526 0.003920159 0.009333011

exp_avg_sq f4 [10, 50]
000000 34 9a 4f 3a 9f 88 b2 39 51 31 3b 3a 97 8b ad 38
       0.00079194014 0.00034052596 0.00071408326 8.2752835e-05
000010 ea 5a 83 3a 6a d5 13 3a 67 c6 5e 39 27 f7 ab 39
       0.0010021601 0.0005639406 0.0002124548 0.00032799804
000020 c5 d5 14 3a 5e 02 d1 38 a9 75 5f 39 84 c7 4a 32
       0.0005677606 9.9663375e-05 0.00021310769 1.1803312e-08
000030 c6 23 90 38 fb 77 2f 3a f3 1c d5 39 44 89 99 39
       6.8731184e-05 0.00066935987 0.00040648095 0.00029284705
000040 a7 51 31 3b 2f 59 b3 39 41 a9 81 3a 8e 9b bf 39
       0.0027056725 0.00034207987 0.000989236 0.00036546256
000050 0a 65 29 39 7c be 81 39 19 11 b5 38 e8 81 f2 3a
       0.00016154736 0.0002474672 8.633937e-05 0.001850185
000060 dc c0 0b 39 11 92 28 3a 95 95 df 3a 51 a4 39 39
       0.00013327919 0.0006430457 0.0017058129 0.00017704187
000070 61 bb 94 3a 9f 26 38 3a de 48 dd 39 10 0f 08 39
       0.0011347347 0.0007024798 0.00042206695 0.00012975582
000080 51 bf 99 39 f5 79 db 38 e6 24 97 39 39 7a 73 38
       0.00029324976 0.0001046545 0.00028828456 5.8049543e-05
000090 75 df 1e 37 a6 80 41 38 4f 78 44 38 ba bc 62 3a
       9.4695615e-06 4.61346e-05 4.6842088e-05 0.0008649338
0000a0 ae 42 9e 38 a1 14 d4 39 65 3c b0 39 86 87 2f 38
       7.546447e-05 0.0004045116 0.00033614333 4.1849467e-05
0000b0 c5 0c df 38 11 c0 3c 3a 8b 82 05 39 6e 22 2d 39
       0.00010635847 0.0007200251 0.000127325 0.00016511392
0000c0 88 99 6f 38 87 6f 5c 3a 89 a5 81 39 f0 41 1d 3a
       5.7125028e-05 0.0008408953 0.0002472813 0.00059989
0000d0 d4 49 a3 39 89 cc 18 3a a0 00 8b 39 36 53 91 39
       0.0003114479 0.0005828818 0.00026512612 0.00027718552
0000e0 88 14 81 39 b2 03 9e 38 c9 07 2c 39 10 c9 04 39
       0.00024620094 7.5347154e-05 0.00016406098 0.00012663403
0000f0 5f bc 02 39 d9 ec ca 30 33 56 2e 39 c6 dd 96 3a
       0.0001246794 1.476475e-09 0.00016626045 0.0011510185
000100 bd 22 b9 38 77 c5 16 3a b9 19 a4 39 4a 7d b1 3a
       8.827958e-05 0.00057514705 0.00031299682 0.0013541367
000110 0b 9f 42 39 6e cc 81 39 9d 75 8c 3a 86 e9 e1 38
       0.0001856053 0.0002475711 0.0010716204 0.00010772333
000120 bc ed 1b 3a cf 2f b5 39 ee 92 5b 3a d8 c8 56 39
       0.0005948206 0.0003455863 0.0008376081 0.0002048345
000130 6e 49 d2 38 e0 88 8c 37 9e 8d 98 3a f1 90 9b 39
       0.00010027258 1.6753038e-05 0.0011638885 0.00029671894
000140 56 a5 90 3a 6c f1 0c 3a cb 10 51 39 53 e2 bc 39
       0.0011035602 0.0005376551 0.00019938049 0.0003602678
000150 29 4a 8c 39 5e 28 82 39 46 b5 00 3a 49 1e 8f 38
       0.00026758134 0.00024825608 0.00049098243 6.8244124e-05
000160 84 06 d9 39 74 e5 33 39 7f 6c fd 39 36 9c c6 38
       0.0004139432 0.00017156248 0.00048336756 9.470472e-05
000170 85 ad 9b 37 48 b5 11 39 9c ca 85 38 d7 7a 81 39
       1.8558241e-05 0.0001389581 6.379673e-05 0.0002469632
000180 3d 54 8c 3a 19 6f c9 39 e7 01 03 39 76 59 1c 39
       0.0010706257 0.00038420482 0.00012493842 0.00014910646
000190 4e c6 ea 39 cc f3 63 3a f0 cc 71 3a 27 85 6a 3a
       0.00044779707 0.00086956914 0.00092239585 0.0008946233
0001a0 4f e1 ae 3a b2 ef 9b 3a 1b c8 49 3a e2 2b ae 39
       0.0013342294 0.0011896996 0.00076973595 0.0003322056
0001b0 1f 81 49 3a 63 bc 8c 3a 1d d0 18 3a 1d ea 5a 30
       0.0007686782 0.0010737296 0.0005829351 7.9640633e-10
0001c0 3b ec d2 39 4f 34 21 3b b0 15 4d 3a 26 69 df 39
       0.00040230327 0.0024597829 0.0007823361 0.00042612216
0001d0 b4 a1 77 3b ad 82 8f 39 b6 98 00 3b d0 e6 9c 3a
       0.0037785592 0.00027372446 0.0019622273 0.0011970643
0001e0 be 75 a4 3a fd 80 42 3a 48 06 59 3a 99 c2 12 3b
       0.0012547297 0.00074197334 0.0008278829 0.0022393821
0001f0 19 2e da 39 ec 43 80 3a ee 60 a6 3a c9 3f 0a 39
       0.00041614546 0.0009785867 0.0012693682 0.00013184467
000200 0b 27 2e 3b 99 3c 45 3a 2f 80 f8 3a 14 6b 14 3a
       0.0026573564 0.00075239834 0.00189591 0.0005661708
000210 df d8 0e 3a bc 80 1f 3a 13 8a 18 3a 35 0f 18 39
       0.00054491864 0.00060845516 0.00058189145 0.00014501515
000220 4b 66 91 39 ad 21 0d 3a f5 8a 5c 3a a7 f1 99 3a
       0.0002773277 0.0005383741 0.000841304 0.0011744992
000230 00 eb 5e 3a d2 bb e0 39 bf a5 58 39 61 37 8a 39
       0.00085036457 0.00042864546 0.0002066111 0.00026362672
000240 bf 6c fb 39 b5 8c 41 3a 48 38 b1 3a 19 5a 1c 3a
       0.00047955473 0.00073833327 0.0013520801 0.00059643533
000250 a3 c5 61 39 db c5 b8 3a 5a f8 61 3a 42 c9 d6 3a
       0.00021531298 0.0014097051 0.0008620076 0.0016386884
000260 b2 96 5d 3a ce 2e 1a 3a da d5 7a 3a c6 58 95 3a
       0.00084529363 0.0005881608 0.00095686095 0.0011394254
000270 53 9a 98 3a ea 87 88 39 5c 5f c6 3a 2c 3a 5d 3a
       0.0011642672 0.00026041205 0.001513462 0.0008439149
000280 cc 81 a4 3a b1 cf fe 30 56 29 6a 39 b8 b1 1e 3b
       0.001255089 1.8539962e-09 0.00022331378 0.0024214815
000290 3d bf 5a 3a 08 85 bc 3a ec 3a 85 3b 00 d4 58 3a
       0.0008344537 0.0014382908 0.004065862 0.00082713366
0002a0 cc 0b 95 3a b4 ed a0 3a 5f 4a c4 3a 16 e0 d7 39
       0.0011371314 0.0012277872 0.0014975778 0.00041174953
0002b0 bf ee d4 3a 89 a4 23 3b 21 de 68 3a 03 b5 e5 3a
       0.0016245468 0.0024969897 0.00088831974 0.0017525259
0002c0 c5 15 6b 3a 68 a6 e7 38 7e 33 68 3b 18 ca b8 3a
       0.00089677825 0.00011045934 0.0035431082 0.0014098315
0002d0 06 35 f1 3a df 50 6c 3a c7 a7 79 3a cf 48 a3 39
       0.0018402643 0.0009014736 0.0009523597 0.0003114403
0002e0 2c 5c 80 39 7a 9c 17 39 e3 3b a1 39 51 4c e7 39
       0.00024482736 0.00014458774 0.00030752932 0.00044116614
0002f0 da 8e 51 3a a7 15 29 3a 2d 65 74 3a 9f 4b 95 3a
       0.0007994004 0.0006450065 0.00093229377 0.0011390335
000300 5e d4 1e 39 54 6e 92 3a ab 80 3d 39 45 19 b1 3a
       0.00015147167 0.0011171796 0.00018072377 0.0013511559
000310 c7 97 9f 3a c1 8a ed 3a ac 7c 28 3a 5c f8 f9 3a
       0.001217597 0.0018123017 0.0006427269 0.0019071209
000320 a0 4e cc 39 0c ae 39 3a f2 dc d5 39 a3 b4 0e 39
       0.00038968492 0.0007083125 0.00040791143 0.00013609468
000330 66 80 96 39 bf e8 fd 3a 7b 3d d7 3a 79 42 5f 3a
       0.00028705894 0.0019371732 0.0016421521 0.000851668
000340 0e 0f a2 38 41 9b 83 39 15 43 a0 3a 6b 85 16 30
       7.727566e-05 0.0002510194 0.0012227023 5.475928e-10
000350 2b aa 27 3a c0 76 d5 3a e2 00 d0 39 e2 ed 55 39
       0.00063959014 0.0016286001 0.0003967351 0.00020401881
000360 0b 64 2f 3b 2b 00 90 3a fb e0 98 3a 43 e2 c2 38
       0.002676251 0.0010986378 0.0011663729 9.2927854e-05
000370 ea 9d 98 39 ac 24 55 3a 7a f6 95 38 29 32 71 3a
       0.00029109354 0.000813077 7.1507835e-05 0.0009200895
000380 64 77 25 3a a4 e4 c9 38 9f 47 75 3a bc 66 25 3a
       0.0006312041 9.6270145e-05 0.00093566807 0.0006309559
000390 c0 cf 2e 3a ea f0 a4 3a 47 22 23 3a 1d 32 25 3a
       0.00066685304 0.0012584005 0.0006223064 0.0006301718
0003a0 ad 7b 48 3a 59 81 4f 3a 9e 1a c5 39 b9 6a 20 3a
       0.00076478237 0.00079156976 0.000375946 0.00061194185
0003b0 76 7e 98 39 3e f3 92 38 87 1e b9 38 b6 7a 4b 3a
       0.0002908592 7.00713e-05 8.8271736e-05 0.0007762121
0003c0 9d 03 98 38 0e ac f3 38 5b c9 19 3a 4d b8 ce 39
       7.248598e-05 0.000116191906 0.0005866491 0.00039428697
0003d0 c0 34 a7 39 4f a3 45 3a 64 c3 35 39 23 c0 ad 3a
       0.00031892024 0.00075392885 0.00017334294 0.0013256114
0003e0 a4 80 69 3a 87 d6 35 39 56 d1 b2 3a 08 2a df 3a
       0.00089074136 0.00017341423 0.0013642709 0.0017026076
0003f0 c3 c7 41 3a 08 2f 3d 39 3b f8 86 3a 2a cb 5b 3a
       0.00073921325 0.00018041965 0.0010297367 0.0008384461

exp_avg f4 [10]
000000 d1 ce 4e bb ef b0 91 3a 86 24 87 ba 1d 39 ff 3a
       -0.0031556378 0.0011115352 -0.0010310567 0.0019471977
000010 e5 20 6c 3a 98 17 d6 3a 17 1d 05 3b 08 ba 52 3b
       0.0009007587 0.0016333936 0.0020311528 0.003215434
000020 9e ce bc bb a3 2b 6a ba
       -0.0057619354 -0.0008932894

exp_avg_sq f4 [10]
000000 9a df aa 38 65 23 c0 38 37 61 34 39 57 77 51 39
       8.147881e-05 9.161866e-05 0.00017202353 0.00019976251
000010 22 81 1c 39 eb d9 40 39 75 f2 c3 38 4f ba 07 39
       0.00014925425 0.00018391728 9.343486e-05 0.00012944009
000020 cd e6 70 39 58 28 58 39
       0.00022974164 0.00020614394
